…
2017-11-25 12:11:50.611271: I c:\l\work\tensorflow-1.1.0\tensorflow\core\common_runtime\gpu\gpu_device.cc:908] DMA: 0
2017-11-25 12:11:50.614723: I c:\l\work\tensorflow-1.1.0\tensorflow\core\common_runtime\gpu\gpu_device.cc:918] 0:   Y
2017-11-25 12:11:50.618997: I c:\l\work\tensorflow-1.1.0\tensorflow\core\common_runtime\gpu\gpu_device.cc:977] Creating TensorFlow device (/gpu:0) -> (device: 0, name: GeForce MX150, pci bus id: 0000:01:00.0)
_________________________________________________________________
Layer (type)                 Output Shape              Param #
=================================================================
lambda_1 (Lambda)            (None, 160, 320, 3)       0
_________________________________________________________________
cropping2d_1 (Cropping2D)    (None, 65, 320, 3)        0
_________________________________________________________________
conv2d_1 (Conv2D)            (None, 31, 158, 24)       1824
_________________________________________________________________
conv2d_2 (Conv2D)            (None, 14, 77, 36)        21636
_________________________________________________________________
conv2d_3 (Conv2D)            (None, 5, 37, 48)         43248
_________________________________________________________________
conv2d_4 (Conv2D)            (None, 3, 35, 64)         27712
_________________________________________________________________
conv2d_5 (Conv2D)            (None, 1, 33, 64)         36928
_________________________________________________________________
flatten_1 (Flatten)          (None, 2112)              0
_________________________________________________________________
dense_1 (Dense)              (None, 100)               211300
_________________________________________________________________
dense_2 (Dense)              (None, 50)                5050
_________________________________________________________________
dropout_1 (Dropout)          (None, 50)                0
_________________________________________________________________
dense_3 (Dense)              (None, 1)                 51
=================================================================
Total params: 347,749
Trainable params: 347,749
Non-trainable params: 0
_________________________________________________________________
Classifier.py:80: UserWarning: The semantics of the Keras 2 argument `steps_per_epoch` is not the same as the Keras 1 argument `samples_per_epoch`. `steps_per_epoch` is the number of batches to draw from the generator at each epoch. Basically steps_per_epoch = samples_per_epoch/batch_size. Similarly `nb_val_samples`->`validation_steps` and `val_samples`->`steps` arguments have changed. Update your method calls accordingly.
…
